Packages/jp.keijiro.mediapipe.selfie/ONNX/selfie_segmentation_landscape.onnx (onnx, 446282 bytes, 110 tensors)

scales__125 f4 [4]
1.0 1.0 2.0 2.0
00000000: 0000 803f 0000 803f 0000 0040 0000 0040

depthwise_conv2d_9/y:0 f4 [16]
-1.4785156 -0.6357422 -1.0566406 0.0021305084 0.25927734 2.2226562 -1.4013672 1.9990234
-0.94970703 0.35302734 -1.7285156 1.4453125 0.043670654 0.20056152 0.1194458 -0.15124512
00000000: 0040 bdbf 00c0 22bf 0040 87bf 00a0 0b3b
00000010: 00c0 843e 0040 0e40 0060 b3bf 00e0 ff3f
00000020: 0020 73bf 00c0 b43e 0040 ddbf 0000 b93f
00000030: 00e0 323d 0060 4d3e 00a0 f43d 00e0 1abe

depthwise_conv2d_8/y:0 f4 [24]
-0.5019531 0.28930664 -1.2993813e-05 -0.03845215 1.5957031 -0.24438477 0.5004883 1.8105469
1.2363281 0.5722656 -0.008468628 2.3261719 -0.39648438 -0.86035156 -0.0060806274 0.1352539
-0.2010498 -0.8125 -1.015625 -0.34545898 0.2541504 -0.24401855 0.044799805 0.103637695
00000000: 0080 00bf 0020 943e 0000 5ab7 0080 1dbd
00000010: 0040 cc3f 0040 7abe 0020 003f 00c0 e73f
00000020: 0040 9e3f 0080 123f 00c0 0abc 00e0 1440
00000030: 0000 cbbe 0040 5cbf 0040 c7bb 0080 0a3e
00000040: 00e0 4dbe 0000 50bf 0000 82bf 00e0 b0be
00000050: 0020 823e 00e0 79be 0080 373d 0040 d43d

depthwise_conv2d_7/y:0 f4 [96]
-0.25854492 -0.13500977 -0.14025879 -0.034484863 -0.5288086 0.28100586 0.42919922 0.13146973
-0.36206055 -0.21960449 0.0050201416 -0.2692871 0.5498047 0.58691406 -0.07702637 -0.015037537
0.07873535 -0.21740723 -1.0566406 -0.7919922 0.5073242 0.23034668 0.26367188 -0.5410156
-0.93359375 2.2148438 0.4802246 0.24963379 -0.9970703 1.1074219 -0.5 0.66845703
0.17663574 0.14538574 -0.015472412 0.70410156 0.35253906 -0.5415039 -0.24121094 1.0693359
0.54052734 -0.5073242 -0.14489746 -0.359375 -0.040496826 -0.22338867 1.484375 0.61376953
-0.67626953 -0.5253906 0.45581055 -0.43945312 -0.10992432 -0.28808594 0.11621094 -0.42285156
-0.8574219 0.16967773 0.19750977 -0.5239258 -0.5498047 0.27026367 0.38378906 -0.14355469
0.22387695 -0.3400879 -0.30322266 -0.62646484 -0.55810547 -0.21154785 -0.73535156 0.96728516
0.14672852 -0.4909668 -0.095581055 -0.38452148 0.012809753 0.3774414 -0.9091797 -0.140625
0.7211914 0.63964844 -0.3618164 0.083496094 -0.2902832 0.21228027 0.058380127 -0.14831543
0.20410156 -0.36938477 2.1289062 -0.13146973 -0.48754883 0.2915039 -0.15246582 -0.6503906
00000000: 0060 84be 0040 0abe 00a0 0fbe 0040 0dbd
00000010: 0060 07bf 00e0 8f3e 00c0 db3e 00a0 063e
00000020: 0060 b9be 00e0 60be 0080 a43b 00e0 89be
00000030: 00c0 0c3f 0040 163f 00c0 9dbd 0060 76bc
00000040: 0040 a13d 00a0 5ebe 0040 87bf 00c0 4abf
00000050: 00e0 013f 00e0 6b3e 0000 873e 0080 0abf
00000060: 0000 6fbf 00c0 0d40 00e0 f53e 00a0 7f3e
00000070: 0040 7fbf 00c0 8d3f 0000 00bf 0020 2b3f
00000080: 00e0 343e 00e0 143e 0080 7dbc 0040 343f
00000090: 0080 b43e 00a0 0abf 0000 77be 00e0 883f
000000a0: 0060 0a3f 00e0 01bf 0060 14be 0000 b8be
000000b0: 00e0 25bd 00c0 64be 0000 be3f 0020 1d3f
000000c0: 0020 2dbf 0080 06bf 0060 e93e 0000 e1be
000000d0: 0020 e1bd 0080 93be 0000 ee3d 0080 d8be
000000e0: 0080 5bbf 00c0 2d3e 0040 4a3e 0020 06bf
000000f0: 00c0 0cbf 0060 8a3e 0080 c43e 0000 13be
00000100: 0040 653e 0020 aebe 0040 9bbe 0060 20bf
00000110: 00e0 0ebf 00a0 58be 0040 3cbf 00a0 773f
00000120: 0040 163e 0060 fbbe 00c0 c3bd 00e0 c4be
00000130: 00e0 513c 0040 c13e 00c0 68bf 0000 10be
00000140: 00a0 383f 00c0 233f 0040 b9be 0000 ab3d
00000150: 00a0 94be 0060 593e 0020 6f3d 00e0 17be
00000160: 0000 513e 0020 bdbe 0040 0840 00a0 06be
00000170: 00a0 f9be 0040 953e 0020 1cbe 0080 26bf

depthwise_conv2d_6/y:0 f4 [96]
0.38916016 -0.08569336 -1.53125 0.2993164 -0.7050781 0.46142578 -0.25146484 -0.24194336
0.27124023 0.34472656 -0.017303467 -0.4152832 0.058563232 -0.082214355 0.048858643 -0.9560547
-0.0051231384 -0.07531738 0.7524414 0.14257812 -1.1142578 0.09680176 -0.63623047 0.57421875
0.074401855 -0.008590698 -0.80566406 0.546875 0.3383789 -0.5336914 -0.38842773 -0.041503906
-0.75390625 0.5961914 0.47509766 -0.45361328 0.24169922 -0.25268555 -0.3791504 0.22839355
-0.18164062 0.23986816 -0.41186523 0.67529297 0.71875 0.5673828 0.21643066 0.20898438
0.0022792816 -1.3564453 -0.32421875 0.09008789 0.65478516 -0.3227539 -0.2290039 -0.6171875
0.21838379 -0.10839844 -0.5986328 1.2246094 -0.1928711 0.11871338 -0.41601562 -0.10656738
0.02041626 -0.1529541 -0.17810059 0.21264648 -0.21838379 -0.6640625 -0.23693848 -0.19116211
-0.15026855 -0.23291016 -0.37329102 1.1748047 0.064331055 -0.40649414 -0.11639404 0.1381836
0.5620117 -0.6171875 -0.76953125 -0.38720703 -0.03189087 -0.28027344 -0.26098633 -0.6879883
0.07159424 0.42285156 -0.8183594 -0.24707031 -0.6171875 -1.3535156 0.01626587 -0.05697632
00000000: 0040 c73e 0080 afbd 0000 c4bf 0040 993e
00000010: 0080 34bf 0040 ec3e 00c0 80be 00c0 77be
00000020: 00e0 8a3e 0080 b03e 00c0 8dbc 00a0 d4be
00000030: 00e0 6f3d 0060 a8bd 0020 483d 00c0 74bf
00000040: 00e0 a7bb 0040 9abd 00a0 403f 0000 123e
00000050: 00a0 8ebf 0040 c63d 00e0 22bf 0000 133f
00000060: 0060 983d 00c0 0cbc 0040 4ebf 0000 0c3f
00000070: 0040 ad3e 00a0 08bf 00e0 c6be 0000 2abd
00000080: 0000 41bf 00a0 183f 0040 f33e 0040 e8be
00000090: 0080 773e 0060 81be 0020 c2be 00e0 693e
000000a0: 0000 3abe 00a0 753e 00e0 d2be 00e0 2c3f
000000b0: 0000 383f 0040 113f 00a0 5d3e 0000 563e
000000c0: 0060 153b 00a0 adbf 0000 a6be 0080 b83d
000000d0: 00a0 273f 0040 a5be 0080 6abe 0000 1ebf
000000e0: 00a0 5f3e 0000 debd 0040 19bf 00c0 9c3f
000000f0: 0080 45be 0020 f33d 0000 d5be 0040 dabd
00000100: 0040 a73c 00a0 1cbe 0060 36be 00c0 593e
00000110: 00a0 5fbe 0000 2abf 00a0 72be 00c0 43be
00000120: 00e0 19be 0080 6ebe 0020 bfbe 0060 963f
00000130: 00c0 833d 0020 d0be 0060 eebd 0080 0d3e
00000140: 00e0 0f3f 0000 1ebf 0000 45bf 0040 c6be
00000150: 00a0 02bd 0080 8fbe 00a0 85be 0020 30bf
00000160: 00a0 923d 0080 d83e 0080 51bf 0000 7dbe
00000170: 0000 1ebf 0040 adbf 0040 853c 0060 69bd

depthwise_conv2d_5/y:0 f4 [128]
1.8330078 -0.1529541 -0.15893555 -0.41918945 -0.0005054474 -0.3930664 -0.18969727 -0.28979492
-0.69091797 -0.5961914 0.26879883 0.1459961 0.0927124 -0.05770874 0.6459961 0.025405884
0.19909668 -0.28100586 -0.26367188 0.01638794 -0.66015625 -0.66259766 0.018005371 -0.34033203
-0.24291992 0.5864258 0.6015625 -0.4116211 -0.27514648 0.16955566 -0.17858887 -0.5488281
-0.27514648 0.6635742 -0.5136719 -0.5292969 -1.3662109 -2.1074219 -1.2041016 -0.26831055
-0.55322266 -0.35595703 0.69970703 -0.40283203 -0.12585449 -0.6459961 -1.0605469 0.5263672
-0.79541016 -0.26489258 -0.6694336 0.35205078 -0.5996094 -0.39208984 -0.22229004 -0.2631836
0.0033512115 -0.16711426 -0.90283203 -0.35498047 0.1574707 0.0692749 0.11975098 0.8618164
-0.1986084 -1.0332031 -0.25024414 -0.35375977 -0.46826172 0.875 -0.29956055 0.12658691
-0.12036133 -0.37329102 -1.2441406 -0.6713867 -0.41503906 -0.14855957 1.2021484 -0.30639648
0.32104492 -1.1337891 -0.5810547 0.18334961 0.10961914 -0.5102539 -1.5947266 -0.4091797
0.52490234 -0.6508789 -0.6640625 0.42138672 -0.8095703 0.07421875 -0.52734375 -0.3017578
0.049682617 -0.85595703 -2.5449219 -0.22180176 -0.15356445 -0.115478516 -0.16796875 0.35180664
-0.8432617 -0.3935547 -0.26733398 0.24914551 0.8886719 -0.13916016 -1.0351562 0.13452148
-0.50390625 -0.101989746 -0.2211914 1.0478516 -1.1191406 -0.42456055 0.47509766 0.6176758
-0.14819336 0.07910156 -0.53808594 -0.28710938 0.34106445 -0.26953125 -0.85595703 0.0690918
00000000: 00a0 ea3f 00a0 1cbe 00c0 22be 00a0 d6be
00000010: 0080 04ba 0040 c9be 0040 42be 0060 94be
00000020: 00e0 30bf 00a0 18bf 00a0 893e 0080 153e
00000030: 00e0 bd3d 0060 6cbd 0060 253f 0020 d03c
00000040: 00e0 4b3e 00e0 8fbe 0000 87be 0040 863c
00000050: 0000 29bf 00a0 29bf 0080 933c 0040 aebe
00000060: 00c0 78be 0020 163f 0000 1a3f 00c0 d2be
00000070: 00e0 8cbe 00a0 2d3e 00e0 36be 0080 0cbf
00000080: 00e0 8cbe 00e0 293f 0080 03bf 0080 07bf
00000090: 00e0 aebf 00e0 06c0 0020 9abf 0060 89be
000000a0: 00a0 0dbf 0040 b6be 0020 333f 0040 cebe
000000b0: 00e0 00be 0060 25bf 00c0 87bf 00c0 063f
000000c0: 00a0 4bbf 00a0 87be 0060 2bbf 0040 b43e
000000d0: 0080 19bf 00c0 c8be 00a0 63be 00c0 86be
000000e0: 00a0 5b3b 0020 2bbe 0020 67bf 00c0 b5be
000000f0: 0040 213e 00e0 8d3d 0040 f53d 00a0 5c3f
00000100: 0060 4bbe 0040 84bf 0020 80be 0020 b5be
00000110: 00c0 efbe 0000 603f 0060 99be 00a0 013e
00000120: 0080 f6bd 0020 bfbe 0040 9fbf 00e0 2bbf
00000130: 0080 d4be 0020 18be 00e0 993f 00e0 9cbe
00000140: 0060 a43e 0020 91bf 00c0 14bf 00c0 3b3e
00000150: 0080 e03d 00a0 02bf 0020 ccbf 0080 d1be
00000160: 0060 063f 00a0 26bf 0000 2abf 00c0 d73e
00000170: 0040 4fbf 0000 983d 0000 07bf 0080 9abe
00000180: 0080 4b3d 0020 5bbf 00e0 22c0 0020 63be
00000190: 0040 1dbe 0080 ecbd 0000 2cbe 0020 b43e
000001a0: 00e0 57bf 0080 c9be 00e0 88be 0020 7f3e
000001b0: 0080 633f 0080 0ebe 0080 84bf 00c0 093e
000001c0: 0000 01bf 00e0 d0bd 0080 62be 0020 863f
000001d0: 0040 8fbf 0060 d9be 0040 f33e 0020 1e3f
000001e0: 00c0 17be 0000 a23d 00c0 09bf 0000 93be
000001f0: 00a0 ae3e 0000 8abe 0020 5bbf 0080 8d3d

depthwise_conv2d_4/y:0 f4 [128]
-0.5083008 -1.3154297 0.42529297 -0.27734375 -0.37573242 0.09429932 0.0002322197 -0.26489258
-0.018508911 0.03918457 -0.50634766 -0.30932617 -0.28808594 0.23791504 -0.33618164 0.7783203
-1.0058594 -0.17822266 -0.06298828 0.5239258 -0.14758301 0.7680664 -0.15686035 -0.58496094
-0.66796875 0.58935547 0.15344238 -0.061676025 -0.8925781 -0.31567383 0.50390625 0.4272461
-0.8154297 -0.42895508 -0.25878906 -0.5053711 -0.21679688 -0.9267578 -0.22363281 -0.2607422
0.103637695 -0.09918213 -0.74560547 -0.92871094 0.35009766 0.21777344 -0.66015625 -0.05041504
-0.37451172 0.30371094 1.0898438 -0.70410156 -0.53466797 -2.1503906 -0.044677734 -0.9633789
0.07470703 -1.0117188 -0.020507812 0.10986328 -2.234375 -1.0419922 -1.1660156 1.5380859
-0.74072266 -0.3857422 0.3269043 -0.026763916 0.38354492 -1.6943359 1.5439453 0.13244629
0.22595215 -0.15637207 -0.18603516 0.18908691 -1.2792969 -0.3503418 -1.2041016 0.15979004
0.35083008 0.84228516 -0.29541016 -0.8642578 -0.13647461 -0.19482422 -1.2822266 -0.81884766
0.109680176 -1.3710938 0.09033203 -0.0791626 0.28271484 -0.17053223 0.5541992 -1.5332031
0.7988281 -1.9365234 -0.3125 0.1262207 -0.34204102 0.3881836 0.3178711 -0.3347168
0.29248047 -0.45410156 0.2097168 -0.13867188 0.52246094 0.9511719 -0.16101074 -0.33154297
-0.5834961 -0.9213867 -0.2878418 -0.9741211 -0.28076172 -0.5517578 -0.5136719 -0.2861328
-1.9179688 -0.2685547 0.115112305 1.1923828 -0.9980469 -0.20458984 -0.8847656 -0.3244629
00000000: 0020 02bf 0060 a8bf 00c0 d93e 0000 8ebe
00000010: 0060 c0be 0020 c13d 0080 7339 00a0 87be
00000020: 00a0 97bc 0080 203d 00a0 01bf 0060 9ebe
00000030: 0080 93be 00a0 733e 0020 acbe 0040 473f
00000040: 00c0 80bf 0080 36be 0000 81bd 0020 063f
00000050: 0020 17be 00a0 443f 00a0 20be 00c0 15bf
00000060: 0000 2bbf 00e0 163f 0020 1d3e 00a0 7cbd
00000070: 0080 64bf 00a0 a1be 0000 013f 00c0 da3e
00000080: 00c0 50bf 00a0 dbbe 0080 84be 0060 01bf
00000090: 0000 5ebe 0040 6dbf 0000 65be 0080 85be
000000a0: 0040 d43d 0020 cbbd 00e0 3ebf 00c0 6dbf
000000b0: 0040 b33e 0000 5f3e 0000 29bf 0080 4ebd
000000c0: 00c0 bfbe 0080 9b3e 0080 8b3f 0040 34bf
000000d0: 00e0 08bf 00a0 09c0 0000 37bd 00a0 76bf
000000e0: 0000 993d 0080 81bf 0000 a8bc 0000 e13d
000000f0: 0000 0fc0 0060 85bf 0040 95bf 00e0 c43f
00000100: 00a0 3dbf 0080 c5be 0060 a73e 0040 dbbc
00000110: 0060 c43e 00e0 d8bf 00a0 c53f 00a0 073e
00000120: 0060 673e 0020 20be 0080 3ebe 00a0 413e
00000130: 00c0 a3bf 0060 b3be 0020 9abf 00a0 233e
00000140: 00a0 b33e 00a0 573f 0040 97be 0040 5dbf
00000150: 00c0 0bbe 0080 47be 0020 a4bf 00a0 51bf
00000160: 00a0 e03d 0080 afbf 0000 b93d 0020 a2bd
00000170: 00c0 903e 00a0 2ebe 00e0 0d3f 0040 c4bf
00000180: 0080 4c3f 00e0 f7bf 0000 a0be 0040 013e
00000190: 0020 afbe 00c0 c63e 00c0 a23e 0060 abbe
000001a0: 00c0 953e 0080 e8be 00c0 563e 0000 0ebe
000001b0: 00c0 053f 0080 733f 00e0 24be 00c0 a9be
000001c0: 0060 15bf 00e0 6bbf 0060 93be 0060 79bf
000001d0: 00c0 8fbe 0040 0dbf 0080 03bf 0080 92be
000001e0: 0080 f5bf 0080 89be 00c0 eb3d 00a0 983f
000001f0: 0080 7fbf 0080 51be 0080 62bf 0020 a6be

depthwise_conv2d_3/y:0 f4 [96]
1.1142578 -0.8198242 0.7836914 0.32739258 1.7177734 -0.27807617 0.7446289 0.4008789
-0.5878906 0.75683594 -0.5488281 -0.4243164 0.9326172 1.0830078 0.4724121 -0.089416504
-0.2397461 -0.014595032 0.56689453 -0.040496826 -0.14526367 -0.40429688 1.3408203 0.9848633
2.5917969 -0.017822266 -0.18432617 0.8154297 1.5585938 0.30419922 0.33398438 1.0644531
0.7602539 0.58447266 0.33935547 -0.9169922 0.86376953 0.20654297 1.0429688 -0.35717773
0.47851562 -0.6694336 0.9008789 1.6855469 -0.43359375 2.3984375 -0.8959961 -0.91064453
-0.7109375 0.40014648 1.1445312 -1.1386719 0.5019531 0.32495117 0.12207031 -0.5751953
0.27075195 0.7314453 -0.55908203 1.3876953 0.4111328 -3.6230469 -0.110839844 0.7446289
0.6513672 2.0957031 0.30444336 -0.14172363 -0.89941406 0.015258789 0.5473633 -0.1307373
-0.4663086 -0.84814453 1.3574219 -0.2631836 0.85253906 0.030441284 -1.0419922 -0.7573242
2.0097656 0.011383057 -0.19372559 0.7114258 -0.55810547 -0.124938965 0.9790039 -0.33398438
0.4128418 0.00566864 1.2919922 -0.40893555 -0.6020508 -0.5209961 -1.1835938 0.5600586
00000000: 00a0 8e3f 00e0 51bf 00a0 483f 00a0 a73e
00000010: 00e0 db3f 0060 8ebe 00a0 3e3f 0040 cd3e
00000020: 0080 16bf 00c0 413f 0080 0cbf 0040 d9be
00000030: 00c0 6e3f 00a0 8a3f 00e0 f13e 0020 b7bd
00000040: 0080 75be 0020 6fbc 0020 113f 00e0 25bd
00000050: 00c0 14be 0000 cfbe 00a0 ab3f 0020 7c3f
00000060: 00e0 2540 0000 92bc 00c0 3cbe 00c0 503f
00000070: 0080 c73f 00c0 9b3e 0000 ab3e 0040 883f
00000080: 00a0 423f 00a0 153f 00c0 ad3e 00c0 6abf
00000090: 0020 5d3f 0080 533e 0080 853f 00e0 b6be
000000a0: 0000 f53e 0060 2bbf 00a0 663f 00c0 d73f
000000b0: 0000 debe 0080 1940 0060 65bf 0020 69bf
000000c0: 0000 36bf 00e0 cc3e 0080 923f 00c0 91bf
000000d0: 0080 003f 0060 a63e 0000 fa3d 0040 13bf
000000e0: 00a0 8a3e 0040 3b3f 0020 0fbf 00a0 b13f
000000f0: 0080 d23e 00e0 67c0 0000 e3bd 00a0 3e3f
00000100: 00c0 263f 0020 0640 00e0 9b3e 0020 11be
00000110: 0040 66bf 0000 7a3c 0020 0c3f 00e0 05be
00000120: 00c0 eebe 0020 59bf 00c0 ad3f 00c0 86be
00000130: 0040 5a3f 0060 f93c 0060 85bf 00e0 41bf
00000140: 00a0 0040 0080 3a3c 0060 46be 0020 363f
00000150: 00e0 0ebf 00e0 ffbd 00a0 7a3f 0000 abbe
00000160: 0060 d33e 00c0 b93b 0060 a53f 0060 d1be
00000170: 0020 1abf 0060 05bf 0080 97bf 0060 0f3f

depthwise_conv2d_2/y:0 f4 [88]
-0.26879883 0.8261719 -0.80371094 -0.9682617 -0.6982422 -1.2470703 -0.049926758 -0.36499023
1.4765625 0.24304199 -0.09436035 1.4296875 2.4394531 -0.11450195 0.5629883 2.1367188
0.8461914 -0.056732178 -1.2011719 0.2919922 -0.20788574 0.91552734 0.9921875 0.32788086
-0.37158203 0.22583008 -0.91503906 -0.17749023 -0.031829834 1.4335938 1.0146484 1.7265625
2.2011719 -0.7133789 -0.5942383 1.6777344 1.0048828 -0.013282776 1.9609375 -0.1295166
-0.66064453 2.171875 1.5585938 0.031219482 0.6303711 1.03125 1.109375 1.4599609
-0.30126953 -0.31396484 0.9741211 -0.03994751 -0.47314453 0.024536133 1.9375 2.2578125
0.17651367 0.65625 -0.39379883 0.06628418 -0.051452637 0.048919678 0.019638062 1.5410156
1.7744141 -0.12658691 -3.6992188 -0.49951172 -0.7939453 0.04611206 -0.6484375 1.9628906
-0.25268555 0.4284668 0.08251953 0.12384033 2.4570312 0.07836914 1.3720703 -0.45385742
0.033172607 0.8383789 0.11376953 1.2148438 0.054718018 0.0446167 0.054779053 1.6738281
00000000: 00a0 89be 0080 533f 00c0 4dbf 00e0 77bf
00000010: 00c0 32bf 00a0 9fbf 0080 4cbd 00e0 babe
00000020: 0000 bd3f 00e0 783e 0040 c1bd 0000 b73f
00000030: 0020 1c40 0080 eabd 0020 103f 00c0 0840
00000040: 00a0 583f 0060 68bd 00c0 99bf 0080 953e
00000050: 00e0 54be 0060 6a3f 0000 7e3f 00e0 a73e
00000060: 0040 bebe 0040 673e 0040 6abf 00c0 35be
00000070: 0060 02bd 0080 b73f 00e0 813f 0000 dd3f
00000080: 00e0 0c40 00a0 36bf 0020 18bf 00c0 d63f
00000090: 00a0 803f 00a0 59bc 0000 fb3f 00a0 04be
000000a0: 0020 29bf 0000 0b40 0080 c73f 00c0 ff3c
000000b0: 0060 213f 0000 843f 0000 8e3f 00e0 ba3f
000000c0: 0040 9abe 00c0 a0be 0060 793f 00a0 23bd
000000d0: 0040 f2be 0000 c93c 0000 f83f 0080 1040
000000e0: 00c0 343e 0000 283f 00a0 c9be 00c0 873d
000000f0: 00c0 52bd 0060 483d 00e0 a03c 0040 c53f
00000100: 0020 e33f 00a0 01be 00c0 6cc0 00c0 ffbe
00000110: 0040 4bbf 00e0 3c3d 0000 26bf 0040 fb3f
00000120: 0060 81be 0060 db3e 0000 a93d 00a0 fd3d
00000130: 0040 1d40 0080 a03d 00a0 af3f 0060 e8be
00000140: 00e0 073d 00a0 563f 0000 e93d 0080 9b3f
00000150: 0020 603d 00c0 363d 0060 603d 0040 d63f

depthwise_conv2d_10/y:0 f4 [16]
-1.9462891 0.30029297 0.09057617 -4.7304688 -0.99072266 -1.2558594 0.31982422 -2.8476562
-0.5576172 -4.7226562 -2.6230469 -2.4335938 -1.6748047 -4.1210938 -2.9570312 -2.3984375
00000000: 0020 f9bf 00c0 993e 0080 b93d 0060 97c0
00000010: 00a0 7dbf 00c0 a0bf 00c0 a33e 0040 36c0
00000020: 00c0 0ebf 0020 97c0 00e0 27c0 00c0 1bc0
00000030: 0060 d6bf 00e0 83c0 0040 3dc0 0080 19c0

depthwise_conv2d_1/y:0 f4 [72]
0.7792969 -0.33911133 0.19970703 -0.21813965 0.08691406 1.9589844 -0.023834229 -0.13024902
0.12548828 0.0064811707 -0.1394043 -0.32592773 1.7568359 2.1542969 -0.058013916 2.0625
-0.28955078 0.056274414 -0.06335449 0.04852295 -0.015556335 -0.17089844 -0.02331543 0.15576172
0.72216797 3.5898438 -0.091430664 -0.10650635 0.020523071 0.19018555 1.9160156 -0.36572266
1.7177734 -0.14550781 1.7519531 1.1601562 -0.11608887 0.24963379 -0.14501953 -0.19250488
0.043640137 -0.01512146 -0.056915283 1.5185547 -0.20996094 1.7490234 0.005695343 0.09057617
0.018096924 -0.24816895 -0.03729248 0.06829834 -0.14990234 0.16027832 0.1899414 -0.3762207
-0.06915283 0.21960449 -0.23132324 0.0491333 -0.024108887 0.029052734 2.4707031 0.09863281
1.4316406 1.0429688 -0.06365967 1.8925781 -0.9736328 0.04067993 0.15795898 0.08093262
00000000: 0080 473f 00a0 adbe 0080 4c3e 0060 5fbe
00000010: 0000 b23d 00c0 fa3f 0040 c3bc 0060 05be
00000020: 0080 003e 0060 d43b 00c0 0ebe 00e0 a6be
00000030: 00e0 e03f 00e0 0940 00a0 6dbd 0000 0440
00000040: 0040 94be 0080 663d 00c0 81bd 00c0 463d
00000050: 00e0 7ebc 0000 2fbe 0000 bfbc 0080 1f3e
00000060: 00e0 383f 00c0 6540 0040 bbbd 0020 dabd
00000070: 0020 a83c 00c0 423e 0040 f53f 0040 bbbe
00000080: 00e0 db3f 0000 15be 0040 e03f 0080 943f
00000090: 00c0 edbd 00a0 7f3e 0080 14be 0020 45be
000000a0: 00c0 323d 00c0 77bc 0020 69bd 0060 c23f
000000b0: 0000 57be 00e0 df3f 00a0 ba3b 0080 b93d
000000c0: 0040 943c 0020 7ebe 00c0 18bd 00e0 8b3d
000000d0: 0080 19be 0020 243e 0080 423e 00a0 c0be
000000e0: 00a0 8dbd 00e0 603e 00e0 6cbe 0040 493d
000000f0: 0080 c5bc 0000 ee3c 0020 1e40 0000 ca3d
00000100: 0040 b73f 0080 853f 0060 82bd 0040 f23f
00000110: 0040 79bf 00a0 263d 00c0 213e 00c0 a53d

depthwise_conv2d/y:0 f4 [16]
0.025741577 -0.02671814 0.9003906 -0.00058603287 0.16455078 1.1875 0.03656006 0.014984131
0.0007863045 0.31640625 0.99316406 0.40795898 0.50097656 1.0146484 1.1181641 1.0273438
00000000: 00e0 d23c 00e0 dabc 0080 663f 00a0 19ba
00000010: 0080 283e 0000 983f 00c0 153d 0080 753c
00000020: 0020 4e3a 0000 a23e 0040 7e3f 00e0 d03e
00000030: 0040 003f 00e0 813f 0020 8f3f 0080 833f

conv2d_transpose/filter:0 f4 [16, 1, 2, 2]
-0.6899414 -0.6479492 -0.70947266 -0.6748047 0.6479492 0.6064453 0.78027344 0.7446289
-0.7265625 -0.7133789 -0.7011719 -0.6933594 2.0019531 2.2128906 3.3535156 3.3476562
-0.45751953 0.48242188 -0.13146973 0.88427734 -0.09399414 -0.10430908 0.81591797 0.9116211
0.3881836 0.74853516 0.02748108 0.22521973 1.2421875 1.0224609 1.8828125 1.6513672
-4.6328125 -6.8828125 -4.640625 -6.2695312 -0.47631836 -0.4868164 -0.11340332 -0.08935547
-0.92041016 -0.7265625 -1.2519531 -0.9458008 0.02708435 -0.45507812 0.3869629 -0.2529297
0.040740967 0.064575195 0.5957031 0.63916016 0.030899048 0.025283813 -0.56591797 -0.5805664
0.9086914 0.14294434 0.64697266 -0.027450562 -0.5908203 -0.56152344 -0.81103516 -0.7788086
00000000: 00a0 30bf 00e0 25bf 00a0 35bf 00c0 2cbf
00000010: 00e0 253f 0040 1b3f 00c0 473f 00a0 3e3f
00000020: 0000 3abf 00a0 36bf 0080 33bf 0080 31bf
00000030: 0020 0040 00a0 0d40 00a0 5640 0040 5640
00000040: 0040 eabe 0000 f73e 00a0 06be 0060 623f
00000050: 0080 c0bd 00a0 d5bd 00e0 503f 0060 693f
00000060: 00c0 c63e 00a0 3f3f 0020 e13c 00a0 663e
00000070: 0000 9f3f 00e0 823f 0000 f13f 0060 d33f
00000080: 0040 94c0 0040 dcc0 0080 94c0 00a0 c8c0
00000090: 00e0 f3be 0040 f9be 0040 e8bd 0000 b7bd
000000a0: 00a0 6bbf 0000 3abf 0040 a0bf 0020 72bf
000000b0: 00e0 dd3c 0000 e9be 0020 c63e 0080 81be
000000c0: 00e0 263d 0040 843d 0080 183f 00a0 233f
000000d0: 0020 fd3c 0020 cf3c 00e0 10bf 00a0 14bf
000000e0: 00a0 683f 0060 123e 00a0 253f 00e0 e0bc
000000f0: 0040 17bf 00c0 0fbf 00a0 4fbf 0060 47bf

conv2d_9_1/y:0 f4 [96]
0.9609375 1.0839844 0.18054199 -0.7763672 0.2758789 2.0898438 -0.65722656 -1.1533203
0.22497559 0.08654785 -1.5673828 -0.9067383 0.44628906 0.32836914 0.64160156 -1.1923828
-0.19848633 -0.5625 0.56884766 -0.56152344 -0.9140625 0.078063965 0.21325684 -0.32128906
0.9633789 0.71240234 -0.77685547 1.328125 -0.77978516 -0.6118164 -0.7084961 -0.7861328
0.0982666 0.7392578 0.35229492 -0.38623047 1.3066406 -0.66796875 1.3076172 -0.1895752
2.0214844 -0.08013916 -1.796875 -0.97753906 0.013900757 2.2460938 -0.045410156 -0.24438477
0.48461914 -0.32055664 2.4023438 0.20898438 -1.9091797 0.43969727 0.3100586 1.3720703
1.9121094 -0.16625977 0.06185913 -1.6425781 -0.3095703 -0.4362793 -0.61572266 0.421875
0.35205078 1.4091797 -0.28857422 0.99609375 0.46240234 1.1728516 1.1523438 -0.3544922
1.3261719 -0.3317871 0.7192383 -0.031021118 1.7216797 1.1464844 1.8896484 1.5722656
0.4958496 -0.23583984 -0.13891602 1.2226562 -0.013534546 -0.63916016 0.1430664 -0.6503906
-0.25463867 -0.18127441 0.74609375 -0.05557251 1.109375 0.85009766 1.6640625 -0.39257812
00000000: 0000 763f 00c0 8a3f 00e0 383e 00c0 46bf
00000010: 0040 8d3e 00c0 0540 0040 28bf 00a0 93bf
00000020: 0060 663e 0040 b13d 00a0 c8bf 0020 68bf
00000030: 0080 e43e 0020 a83e 0040 243f 00a0 98bf
00000040: 0040 4bbe 0000 10bf 00a0 113f 00c0 0fbf
00000050: 0000 6abf 00e0 9f3d 0060 5a3e 0080 a4be
00000060: 00a0 763f 0060 363f 00e0 46bf 0000 aa3f
00000070: 00a0 47bf 00a0 1cbf 0060 35bf 0040 49bf
00000080: 0040 c93d 0040 3d3f 0060 b43e 00c0 c5be
00000090: 0040 a73f 0000 2bbf 0060 a73f 0020 42be
000000a0: 0060 0140 0020 a4bd 0000 e6bf 0040 7abf
000000b0: 00c0 633c 00c0 0f40 0000 3abd 0040 7abe
000000c0: 0020 f83e 0020 a4be 00c0 1940 0000 563e
000000d0: 0060 f4bf 0020 e13e 00c0 9e3e 00a0 af3f
000000e0: 00c0 f43f 0040 2abe 0060 7d3d 0040 d2bf
000000f0: 0080 9ebe 0060 dfbe 00a0 1dbf 0000 d83e
00000100: 0040 b43e 0060 b43f 00c0 93be 0000 7f3f
00000110: 00c0 ec3e 0020 963f 0080 933f 0080 b5be
00000120: 00c0 a93f 00e0 a9be 0020 383f 0020 febc
00000130: 0060 dc3f 00c0 923f 00e0 f13f 0040 c93f
00000140: 00e0 fd3e 0080 71be 0040 0ebe 0080 9c3f
00000150: 00c0 5dbc 00a0 23bf 0080 123e 0080 26bf
00000160: 0060 82be 00a0 39be 0000 3f3f 00a0 63bd
00000170: 0000 8e3f 00a0 593f 0000 d53f 0000 c9be

conv2d_8_1/y:0 f4 [24]
-0.38989258 -0.74853516 -1.2822266 2.1894531 -1.7412109 -1.6279297 1.3076172 0.61865234
1.7109375 -0.13049316 0.1809082 -0.5917969 -0.023605347 1.0322266 2.0703125 0.11401367
2.0078125 1.0371094 1.9882812 0.83154297 -0.6699219 0.76123047 -1.0478516 0.27368164
00000000: 00a0 c7be 00a0 3fbf 0020 a4bf 0020 0c40
00000010: 00e0 debf 0060 d0bf 0060 a73f 0060 1e3f
00000020: 0000 db3f 00a0 05be 0040 393e 0080 17bf
00000030: 0060 c1bc 0020 843f 0080 0440 0080 e93d
00000040: 0080 0040 00c0 843f 0080 fe3f 00e0 543f
00000050: 0080 2bbf 00e0 423f 0020 86bf 0020 8c3e

conv2d_7_1/y:0 f4 [88]
0.37329102 0.68359375 0.8642578 -0.33813477 0.4338379 0.3581543 1.0673828 0.42822266
0.7441406 0.45141602 -0.3786621 -0.21728516 0.58251953 0.7583008 0.9501953 1.1542969
-0.16479492 1.3603516 1.5439453 1.0517578 1.3701172 0.9472656 -1.5527344 0.5751953
-0.70410156 1.2431641 -0.50683594 0.80126953 0.36132812 0.80322266 1.0878906 0.65625
1.0351562 0.47924805 0.28295898 0.39697266 0.80908203 1.1220703 0.6899414 0.94873047
-0.23266602 0.5786133 0.41430664 0.52783203 0.9316406 0.051086426 0.65722656 0.5292969
0.8613281 0.17407227 0.097473145 0.6166992 1.1933594 1.3222656 1.4570312 1.0595703
1.2363281 0.31762695 -0.9663086 0.7421875 -0.16870117 0.097961426 0.79589844 0.24694824
0.2097168 1.0185547 0.8378906 -0.40844727 -0.12402344 0.84521484 -1.4599609 -0.5546875
-0.02658081 0.7006836 0.6459961 -0.03427124 -0.6435547 1.3046875 -0.5878906 1.0009766
1.3632812 0.1817627 0.80371094 -0.001042366 0.8911133 0.56640625 0.9301758 1.078125
00000000: 0020 bf3e 0000 2f3f 0040 5d3f 0020 adbe
00000010: 0020 de3e 0060 b73e 00a0 883f 0040 db3e
00000020: 0080 3e3f 0020 e73e 00e0 c1be 0080 5ebe
00000030: 0020 153f 0020 423f 0040 733f 00c0 933f
00000040: 00c0 28be 0020 ae3f 00a0 c53f 00a0 863f
00000050: 0060 af3f 0080 723f 00c0 c6bf 0040 133f
00000060: 0040 34bf 0020 9f3f 00c0 01bf 0020 4d3f
00000070: 0000 b93e 00a0 4d3f 0040 8b3f 0000 283f
00000080: 0080 843f 0060 f53e 00e0 903e 0040 cb3e
00000090: 0020 4f3f 00a0 8f3f 00a0 303f 00e0 723f
000000a0: 0040 6ebe 0020 143f 0020 d43e 0020 073f
000000b0: 0080 6e3f 0040 513d 0040 283f 0080 073f
000000c0: 0080 5c3f 0040 323e 00a0 c73d 00e0 1d3f
000000d0: 00c0 983f 0040 a93f 0080 ba3f 00a0 873f
000000e0: 0040 9e3f 00a0 a23e 0060 77bf 0000 3e3f
000000f0: 00c0 2cbe 00a0 c83d 00c0 4b3f 00e0 7c3e
00000100: 00c0 563e 0060 823f 0080 563f 0020 d1be
00000110: 0000 febd 0060 583f 00e0 babf 0000 0ebf
00000120: 00c0 d9bc 0060 333f 0060 253f 0060 0cbd
00000130: 00c0 24bf 0000 a73f 0080 16bf 0020 803f
00000140: 0080 ae3f 0020 3a3e 00c0 4d3f 00a0 88ba
00000150: 0020 643f 0000 113f 0020 6e3f 0000 8a3f

conv2d_6_1/y:0 f4 [24]
-4.0585938 -1.2646484 0.62646484 -0.87841797 0.7558594 -0.7885742 0.8461914 0.38330078
-1.3857422 -0.9169922 1.234375 -0.22106934 0.13354492 0.10211182 0.07885742 -0.060516357
-0.08178711 -0.36767578 0.85839844 2.4746094 0.016845703 -1.5820312 -0.7158203 -0.17858887
00000000: 00e0 81c0 00e0 a1bf 0060 203f 00e0 60bf
00000010: 0080 413f 00e0 49bf 00a0 583f 0040 c43e
00000020: 0060 b1bf 00c0 6abf 0000 9e3f 0060 62be
00000030: 00c0 083e 0020 d13d 0080 a13d 00e0 77bd
00000040: 0080 a7bd 0040 bcbe 00c0 5b3f 0060 1e40
00000050: 0000 8a3c 0080 cabf 0040 37bf 00e0 36be

conv2d_5_1/y:0 f4 [72]
0.22497559 1.3076172 -0.74902344 1.3164062 1.2734375 1.0029297 1.0742188 1.2353516
1.1220703 1.0361328 1.1757812 0.18237305 1.0205078 0.8071289 0.90722656 0.4831543
-0.005836487 1.2011719 1.1152344 0.93066406 1.0097656 1.1201172 0.92285156 0.7138672
1.1591797 0.11798096 1.1757812 0.89697266 1.1025391 1.0537109 -0.09313965 0.88916016
-0.16430664 1.3955078 -0.011833191 1.2675781 1.3466797 0.13781738 1.2587891 1.1425781
-0.9057617 1.4638672 1.0986328 1.2275391 1.1669922 -0.035949707 1.3535156 0.58496094
1.2617188 0.8774414 1.0078125 1.1142578 1.1083984 1.5869141 0.9267578 1.5
0.8989258 1.6259766 1.2216797 -1.3408203 1.2138672 1.1230469 0.59716797 1.7255859
2.1933594 -0.9301758 1.1640625 0.7783203 0.76220703 1.3369141 1.0673828 0.81933594
00000000: 0060 663e 0060 a73f 00c0 3fbf 0080 a83f
00000010: 0000 a33f 0060 803f 0080 893f 0020 9e3f
00000020: 00a0 8f3f 00a0 843f 0080 963f 00c0 3a3e
00000030: 00a0 823f 00a0 4e3f 0040 683f 0060 f73e
00000040: 0040 bfbb 00c0 993f 00c0 8e3f 0040 6e3f
00000050: 0040 813f 0060 8f3f 0040 6c3f 00c0 363f
00000060: 0060 943f 00a0 f13d 0080 963f 00a0 653f
00000070: 0020 8d3f 00e0 863f 00c0 bebd 00a0 633f
00000080: 0040 28be 00a0 b23f 00e0 41bc 0040 a23f
00000090: 0060 ac3f 0020 0d3e 0020 a13f 0040 923f
000000a0: 00e0 67bf 0060 bb3f 00a0 8c3f 0020 9d3f
000000b0: 0060 953f 0040 13bd 0040 ad3f 00c0 153f
000000c0: 0080 a13f 00a0 603f 0000 813f 00a0 8e3f
000000d0: 00e0 8d3f 0020 cb3f 0040 6d3f 0000 c03f
000000e0: 0020 663f 0020 d03f 0060 9c3f 00a0 abbf
000000f0: 0060 9b3f 00c0 8f3f 00e0 183f 00e0 dc3f
00000100: 0060 0c40 0020 6ebf 0000 953f 0040 473f
00000110: 0020 433f 0020 ab3f 00a0 883f 00c0 513f

conv2d_4_1/y:0 f4 [16]
1.5019531 -3.2949219 -1.1308594 0.62060547 0.7026367 -1.3037109 -0.24633789 -1.7060547
2.7148438 0.122924805 1.2568359 -1.2138672 0.18725586 -0.92871094 -0.23779297 -0.6245117
00000000: 0040 c03f 00e0 52c0 00c0 90bf 00e0 1e3f
00000010: 00e0 333f 00e0 a6bf 0040 7cbe 0060 dabf
00000020: 00c0 2d40 00c0 fb3d 00e0 a03f 0060 9bbf
00000030: 00c0 3f3e 00c0 6dbf 0080 73be 00e0 1fbf

conv2d_42_1/y:0 f4 [16]
-0.12683105 0.10498047 0.39013672 0.034454346 0.36254883 -2.2753906 -0.0046691895 -0.46704102
-5.7890625 0.08673096 -0.2578125 0.22583008 0.6665039 0.10083008 0.67822266 -0.18823242
00000000: 00e0 01be 0000 d73d 00c0 c73e 0020 0d3d
00000010: 00a0 b93e 00a0 11c0 0000 99bb 0020 efbe
00000020: 0040 b9c0 00a0 b13d 0000 84be 0040 673e
00000030: 00a0 2a3f 0080 ce3d 00a0 2d3f 00c0 40be

conv2d_41_1/y:0 f4 [16]
0.1026001 0.5917969 -0.8520508 0.1784668 -0.9584961 -0.70410156 0.22851562 -0.8149414
-1.8085938 -0.6430664 0.34179688 0.7915039 0.4560547 -2.328125 0.3623047 -0.17980957
00000000: 0020 d23d 0080 173f 0020 5abf 00c0 363e
00000010: 0060 75bf 0040 34bf 0000 6a3e 00a0 50bf
00000020: 0080 e7bf 00a0 24bf 0000 af3e 00a0 4a3f
00000030: 0080 e93e 0000 15c0 0080 b93e 0020 38be

conv2d_40_1/y:0 f4 [16]
0.45922852 -0.101501465 0.52246094 -0.27612305 0.15161133 0.64501953 0.53515625 -0.8100586
0.019332886 -0.45703125 0.121276855 0.48095703 -0.4243164 0.15771484 0.17407227 0.015701294
00000000: 0020 eb3e 00e0 cfbd 00c0 053f 0060 8dbe
00000010: 0040 1b3e 0020 253f 0000 093f 0060 4fbf
00000020: 0060 9e3c 0000 eabe 0060 f83d 0040 f63e
00000030: 0040 d9be 0080 213e 0040 323e 00a0 803c

conv2d_3_1/y:0 f4 [16]
-0.35839844 -0.18359375 0.15222168 -1.1474609 -0.23474121 0.14672852 -0.3232422 -0.7270508
-0.86865234 -0.04815674 0.3972168 -0.87060547 -0.3317871 -0.99121094 0.10418701 -0.13122559
00000000: 0080 b7be 0000 3cbe 00e0 1b3e 00e0 92bf
00000010: 0060 70be 0040 163e 0080 a5be 0020 3abf
00000020: 0060 5ebf 0040 45bd 0060 cb3e 00e0 5ebf
00000030: 00e0 a9be 00c0 7dbf 0060 d53d 0060 06be

conv2d_39_1/y:0 f4 [16]
-0.34350586 -0.50146484 -0.33764648 -0.05783081 -0.14086914 -0.27929688 0.20385742 -0.37890625
-0.8779297 0.33203125 -0.12402344 -0.017471313 -0.4675293 -0.6064453 -0.087768555 0.21569824
00000000: 00e0 afbe 0060 00bf 00e0 acbe 00e0 6cbd
00000010: 0040 10be 0000 8fbe 00c0 503e 0000 c2be
00000020: 00c0 60bf 0000 aa3e 0000 febd 0020 8fbc
00000030: 0060 efbe 0040 1bbf 00c0 b3bd 00e0 5c3e

conv2d_38_1/y:0 f4 [16]
0.52490234 0.15905762 0.30126953 -0.40551758 0.7128906 0.18847656 0.63427734 -0.08807373
0.21716309 -0.08569336 0.0925293 0.37646484 -0.35913086 -0.15673828 0.58154297 0.20129395
00000000: 0060 063f 00e0 223e 0040 9a3e 00a0 cfbe
00000010: 0080 363f 0000 413e 0060 223f 0060 b4bd
00000020: 0060 5e3e 0080 afbd 0080 bd3d 00c0 c03e
00000030: 00e0 b7be 0080 20be 00e0 143f 0020 4e3e

conv2d_37_1/y:0 f4 [16]
-0.3959961 -0.41845703 0.0814209 -0.8540039 -1.8740234 0.13623047 0.27539062 -0.2590332
-0.003194809 -0.18847656 1.2392578 -0.4638672 -1.7490234 -0.047332764 0.009513855 -0.042144775
00000000: 00c0 cabe 0040 d6be 00c0 a63d 00a0 5abf
00000010: 00e0 efbf 0080 0b3e 0000 8d3e 00a0 84be
00000020: 0060 51bb 0000 41be 00a0 9e3f 0080 edbe
00000030: 00e0 dfbf 00e0 41bd 00e0 1b3c 00a0 2cbd

conv2d_36_1/y:0 f4 [16]
-0.35864258 -0.13330078 0.1932373 0.3864746 -0.13793945 0.5805664 -0.62060547 -0.06750488
0.2692871 0.06298828 -0.1875 0.265625 -0.37573242 -0.06866455 -0.4091797 -0.10369873
00000000: 00a0 b7be 0080 08be 00e0 453e 00e0 c53e
00000010: 0040 0dbe 00a0 143f 00e0 1ebf 0040 8abd
00000020: 00e0 893e 0000 813d 0000 40be 0000 883e
00000030: 0060 c0be 00a0 8cbd 0080 d1be 0060 d4bd

conv2d_35_1/y:0 f4 [16]
0.2763672 -0.29858398 -0.08538818 0.059570312 0.34301758 0.15185547 -0.66748047 -0.014572144
-0.80615234 -0.005508423 0.82421875 0.37329102 0.3034668 -0.61279297 0.6894531 -0.3647461
00000000: 0080 8d3e 00e0 98be 00e0 aebd 0000 743d
00000010: 00a0 af3e 0080 1b3e 00e0 2abf 00c0 6ebc
00000020: 0060 4ebf 0080 b4bb 0000 533f 0020 bf3e
00000030: 0060 9b3e 00e0 1cbf 0080 303f 00c0 babe

conv2d_34_1/y:0 f4 [24]
-0.17858887 0.15136719 0.024429321 -0.18444824 -0.111328125 0.029907227 0.33422852 0.20361328
-0.1262207 0.42382812 0.1517334 0.043823242 0.50390625 -0.088256836 -0.009902954 0.5371094
0.058532715 0.39331055 0.31689453 0.28393555 1.046875 0.52246094 0.23583984 0.28027344
00000000: 00e0 36be 0000 1b3e 0020 c83c 00e0 3cbe
00000010: 0000 e4bd 0000 f53c 0020 ab3e 0080 503e
00000020: 0040 01be 0000 d93e 0060 1b3e 0080 333d
00000030: 0000 013f 00c0 b4bd 0040 22bc 0080 093f
00000040: 00c0 6f3d 0060 c93e 0040 a23e 0060 913e
00000050: 0000 863f 00c0 053f 0080 713e 0080 8f3e

conv2d_33_1/y:0 f4 [24]
-0.6665039 -0.20019531 0.796875 0.29370117 0.12536621 -0.6352539 -0.20666504 0.3395996
0.45751953 0.76904297 0.5727539 -0.5986328 0.19262695 0.31567383 0.52197266 -0.70410156
-3.5605469 -0.91015625 0.26538086 -0.578125 1.1337891 -0.13012695 0.10394287 -0.09106445
00000000: 00a0 2abf 0000 4dbe 0000 4c3f 0060 963e
00000010: 0060 003e 00a0 22bf 00a0 53be 00e0 ad3e
00000020: 0040 ea3e 00e0 443f 00a0 123f 0040 19bf
00000030: 0040 453e 00a0 a13e 00a0 053f 0040 34bf
00000040: 00e0 63c0 0000 69bf 00e0 873e 0000 14bf
00000050: 0020 913f 0040 05be 00e0 d43d 0080 babd

conv2d_32_1/y:0 f4 [24]
-0.8227539 -0.24243164 -0.14685059 -0.21350098 0.14282227 0.010421753 -0.8232422 0.22436523
-0.7163086 -0.38208008 -0.7397461 0.084472656 -0.14245605 -0.9873047 -0.061676025 -0.27563477
-0.043395996 -0.40820312 -0.35546875 0.019851685 -0.25610352 -0.68652344 -0.55322266 0.005683899
00000000: 00a0 52bf 0040 78be 0060 16be 00a0 5abe
00000010: 0040 123e 00c0 2a3c 00c0 52bf 00c0 653e
00000020: 0060 37bf 00a0 c3be 0060 3dbf 0000 ad3d
00000030: 00e0 11be 00c0 7cbf 00a0 7cbd 0020 8dbe
00000040: 00c0 31bd 0000 d1be 0000 b6be 00a0 a23c
00000050: 0020 83be 00c0 2fbf 00a0 0dbf 0040 ba3b

conv2d_31_1/y:0 f4 [24]
0.5214844 -0.48876953 -0.4206543 -0.59375 -0.7480469 0.06591797 -0.12573242 0.33276367
-0.17211914 0.33129883 -0.06628418 0.2286377 -0.33789062 0.03744507 -0.55029297 0.43408203
-0.67285156 0.41137695 0.1328125 0.49023438 -0.47827148 -0.2705078 -0.6538086 -0.06274414
00000000: 0080 053f 0040 fabe 0060 d7be 0000 18bf
00000010: 0080 3fbf 0000 873d 00c0 00be 0060 aa3e
00000020: 0040 30be 00a0 a93e 00c0 87bd 0020 6a3e
00000030: 0000 adbe 0060 193d 00e0 0cbf 0040 de3e
00000040: 0040 2cbf 00a0 d23e 0000 083e 0000 fb3e
00000050: 00e0 f4be 0080 8abe 0060 27bf 0080 80bd

conv2d_30_1/y:0 f4 [128]
0.17224121 -0.13378906 0.94970703 0.5917969 -1.3984375 0.07556152 0.009773254 0.55615234
0.53222656 0.019073486 0.5078125 -0.8432617 -0.9633789 0.18408203 -0.26000977 -0.75634766
-0.56347656 -0.6303711 -0.6743164 0.022384644 -0.4267578 0.25463867 0.049591064 -0.7636719
-0.60839844 0.18798828 0.11541748 0.017074585 -0.2088623 -0.8354492 0.0005245209 -0.22851562
0.5161133 -0.021530151 0.028823853 -1.1162109 -0.009140015 -0.32055664 -1.4824219 0.19812012
0.12902832 -0.087768555 0.028076172 -0.21057129 0.17895508 -0.36914062 0.24450684 -0.4387207
-0.07293701 0.57714844 -0.72265625 -1.2978516 0.47802734 -1.0214844 0.56396484 -0.84765625
-0.7080078 0.39453125 0.3239746 0.27368164 -0.16577148 -1.0498047 -0.66552734 0.35473633
0.85009766 -0.01574707 0.28271484 -0.5058594 0.21081543 0.29003906 0.6064453 0.20983887
-0.84814453 0.2286377 0.07836914 0.15991211 -0.20617676 -0.124816895 0.35424805 0.29589844
0.17114258 0.48291016 0.23010254 0.08544922 -0.7207031 -0.9682617 -0.045806885 -0.12634277
-0.2322998 -0.4633789 -0.4243164 -0.3947754 1.0878906 0.99365234 -0.1673584 0.41381836
0.21386719 -0.0044441223 -0.5786133 0.09887695 0.23913574 0.1194458 -0.123535156 0.66748047
0.16870117 -1.3857422 -0.5395508 -0.3708496 -0.0395813 -0.048675537 -1.7265625 -0.53466797
-0.38842773 -0.40600586 0.45776367 -0.13537598 0.07446289 0.2602539 0.46044922 0.2244873
-0.3486328 -0.21948242 -0.16931152 0.022720337 1.2382812 0.115478516 0.53759766 -1.3251953
00000000: 0060 303e 0000 09be 0020 733f 0080 173f
00000010: 0000 b3bf 00c0 9a3d 0020 203c 0060 0e3f
00000020: 0040 083f 0040 9c3c 0000 023f 00e0 57bf
00000030: 00a0 76bf 0080 3c3e 0020 85be 00a0 41bf
00000040: 0040 10bf 0060 21bf 00a0 2cbf 0060 b73c
00000050: 0080 dabe 0060 823e 0020 4b3d 0080 43bf
00000060: 00c0 1bbf 0080 403e 0060 ec3d 00e0 8b3c
00000070: 00e0 55be 00e0 55bf 0080 093a 0000 6abe
00000080: 0020 043f 0060 b0bc 0020 ec3c 00e0 8ebf
00000090: 00c0 15bc 0020 a4be 00c0 bdbf 00e0 4a3e
000000a0: 0020 043e 00c0 b3bd 0000 e63c 00a0 57be
000000b0: 0040 373e 0000 bdbe 0060 7a3e 00a0 e0be
000000c0: 0060 95bd 00c0 133f 0000 39bf 0020 a6bf
000000d0: 00c0 f43e 00c0 82bf 0060 103f 0000 59bf
000000e0: 0040 35bf 0000 ca3e 00e0 a53e 0020 8c3e
000000f0: 00c0 29be 0060 86bf 0060 2abf 00a0 b53e
00000100: 00a0 593f 0000 81bc 00c0 903e 0080 01bf
00000110: 00e0 573e 0080 943e 0040 1b3f 00e0 563e
00000120: 0020 59bf 0020 6a3e 0080 a03d 00c0 233e
00000130: 0020 53be 00a0 ffbd 0060 b53e 0080 973e
00000140: 0040 2f3e 0040 f73e 00a0 6b3e 0000 af3d
00000150: 0080 38bf 00e0 77bf 00a0 3bbd 0060 01be
00000160: 00e0 6dbe 0040 edbe 0040 d9be 0020 cabe
00000170: 0040 8b3f 0060 7e3f 0060 2bbe 00e0 d33e
00000180: 0000 5b3e 00a0 91bb 0020 14bf 0080 ca3d
00000190: 00e0 743e 00a0 f43d 0000 fdbd 00e0 2a3f
000001a0: 00c0 2c3e 0060 b1bf 0020 0abf 00e0 bdbe
000001b0: 0020 22bd 0060 47bd 0000 ddbf 00e0 08bf
000001c0: 00e0 c6be 00e0 cfbe 0060 ea3e 00a0 0abe
000001d0: 0080 983d 0040 853e 00c0 eb3e 00e0 653e
000001e0: 0080 b2be 00c0 60be 0060 2dbe 0020 ba3c
000001f0: 0080 9e3f 0080 ec3d 00a0 093f 00a0 a9bf

conv2d_2_1/y:0 f4 [8]
0.08428955 0.5332031 -0.062927246 0.19812012 0.17980957 0.25878906 0.27929688 0.28051758
00000000: 00a0 ac3d 0080 083f 00e0 80bd 00e0 4a3e
00000010: 0020 383e 0080 843e 0000 8f3e 00a0 8f3e

conv2d_29_1/y:0 f4 [128]
-0.18945312 -0.73583984 -0.5073242 -1.0136719 0.09411621 -0.42895508 -0.32592773 -0.20288086
-0.6088867 0.08331299 -0.8588867 -0.13781738 -0.50341797 -0.5810547 -0.8964844 -0.17492676
-0.5830078 -0.28320312 -0.39160156 -1.0410156 -0.48754883 0.016204834 -1.1708984 0.0309906
-0.5932617 -0.82910156 -0.4189453 -0.1361084 0.009849548 -0.054779053 -0.9433594 -0.99072266
-0.57958984 0.09326172 -0.58691406 -0.08728027 -0.23864746 -0.46533203 -0.19250488 -0.8095703
0.19372559 -0.21899414 -0.15002441 0.14978027 -0.12512207 -0.40649414 -1.015625 -0.5488281
-0.19836426 -0.0501709 -0.34033203 -0.16870117 -0.08203125 -1.2705078 -0.9301758 0.20141602
-0.85791016 -0.17919922 -1.015625 -0.9394531 -0.40649414 -0.4375 0.3154297 -0.6464844
-0.0848999 -0.04626465 -0.38623047 -0.5996094 -0.7998047 -0.50439453 -0.57373047 -0.6972656
-0.3149414 -0.058776855 -0.47973633 -0.5776367 -0.5761719 -0.62109375 -0.016571045 -0.62646484
-0.50146484 0.010871887 0.5058594 -0.2536621 0.14489746 -0.13842773 -0.80078125 -0.8803711
-0.032409668 0.101867676 -0.41552734 -1.1679688 0.13195801 0.07305908 -0.15246582 0.80371094
-0.6459961 -0.30151367 -0.33203125 -0.48461914 -0.5126953 0.22851562 -0.34057617 -0.37524414
-0.9238281 -0.17578125 -0.36083984 -0.19543457 -0.72509766 0.13537598 0.22058105 -0.71484375
-0.5419922 -0.34985352 0.007461548 -0.83496094 -0.42456055 -0.24389648 -0.4387207 -0.6538086
-0.6665039 -0.64404297 -0.23754883 -0.16967773 -0.40307617 -0.21655273 -1.0908203 0.034179688
00000000: 0000 42be 0060 3cbf 00e0 01bf 00c0 81bf
00000010: 00c0 c03d 00a0 dbbe 00e0 a6be 00c0 4fbe
00000020: 00e0 1bbf 00a0 aa3d 00e0 5bbf 0020 0dbe
00000030: 00e0 00bf 00c0 14bf 0080 65bf 0020 33be
00000040: 0040 15bf 0000 91be 0080 c8be 0040 85bf
00000050: 00a0 f9be 00c0 843c 00e0 95bf 00e0 fd3c
00000060: 00e0 17bf 0040 54bf 0080 d6be 0060 0bbe
00000070: 0060 213c 0060 60bd 0080 71bf 00a0 7dbf
00000080: 0060 14bf 0000 bf3d 0040 16bf 00c0 b2bd
00000090: 0060 74be 0040 eebe 0020 45be 0040 4fbf
000000a0: 0060 463e 0040 60be 00a0 19be 0060 193e
000000b0: 0020 00be 0020 d0be 0000 82bf 0080 0cbf
000000c0: 0020 4bbe 0080 4dbd 0040 aebe 00c0 2cbe
000000d0: 0000 a8bd 00a0 a2bf 0020 6ebf 0040 4e3e
000000e0: 00a0 5bbf 0080 37be 0000 82bf 0080 70bf
000000f0: 0020 d0be 0000 e0be 0080 a13e 0080 25bf
00000100: 00e0 adbd 0080 3dbd 00c0 c5be 0080 19bf
00000110: 00c0 4cbf 0020 01bf 00e0 12bf 0080 32bf
00000120: 0040 a1be 00c0 70bd 00a0 f5be 00e0 13bf
00000130: 0080 13bf 0000 1fbf 00c0 87bc 0060 20bf
00000140: 0060 00bf 0020 323c 0080 013f 00e0 81be
00000150: 0060 143e 00c0 0dbe 0000 4dbf 0060 61bf
00000160: 00c0 04bd 00a0 d03d 00c0 d4be 0080 95bf
00000170: 0020 073e 00a0 953d 0020 1cbe 00c0 4d3f
00000180: 0060 25bf 0060 9abe 0000 aabe 0020 f8be
00000190: 0040 03bf 0000 6a3e 0060 aebe 0020 c0be
000001a0: 0080 6cbf 0000 34be 00c0 b8be 0020 48be
000001b0: 00a0 39bf 00a0 0a3e 00e0 613e 0000 37bf
000001c0: 00c0 0abf 0020 b3be 0080 f43b 00c0 55bf
000001d0: 0060 d9be 00c0 79be 00a0 e0be 0060 27bf
000001e0: 00a0 2abf 00e0 24bf 0040 73be 00c0 2dbe
000001f0: 0060 cebe 00c0 5dbe 00a0 8bbf 0000 0c3d

conv2d_28_1/y:0 f4 [32]
-0.27514648 -0.7832031 -0.44921875 0.6567383 0.52685547 0.23779297 -1.0185547 -0.75390625
0.11541748 0.31030273 -0.11303711 -0.15820312 -0.34887695 -1.5244141 0.54833984 -0.16833496
-0.0038051605 -1.0664062 0.46166992 0.38598633 0.14440918 -1.8935547 -1.2324219 0.46606445
-0.15356445 -0.6816406 -1.0009766 -0.6225586 -0.3371582 -0.6772461 -0.40771484 -0.7685547
00000000: 00e0 8cbe 0080 48bf 0000 e6be 0020 283f
00000010: 00e0 063f 0080 733e 0060 82bf 0000 41bf
00000020: 0060 ec3d 00e0 9e3e 0080 e7bd 0000 22be
00000030: 00a0 b2be 0020 c3bf 0060 0c3f 0060 2cbe
00000040: 0060 79bb 0080 88bf 0060 ec3e 00a0 c53e
00000050: 00e0 133e 0060 f2bf 00c0 9dbf 00a0 ee3e
00000060: 0040 1dbe 0080 2ebf 0020 80bf 0060 1fbf
00000070: 00a0 acbe 0060 2dbf 00c0 d0be 00c0 44bf

conv2d_27_1/y:0 f4 [96]
-0.32763672 0.24731445 -0.20349121 -0.021240234 0.9355469 0.671875 1.4853516 0.99902344
-0.7050781 -0.18457031 0.0055770874 0.14501953 0.010688782 -0.9008789 0.6352539 0.8305664
0.22485352 0.31811523 -0.54589844 0.40551758 0.31860352 -0.03955078 0.059417725 0.7265625
-0.22277832 -0.079833984 0.45092773 0.6958008 0.3725586 -0.021621704 0.6484375 0.03942871
1.0771484 0.3034668 0.97509766 0.03765869 0.31811523 0.7080078 -0.48510742 0.48120117
-0.11273193 0.1003418 -0.2232666 -0.4050293 -0.108947754 -0.28393555 -0.33129883 0.37695312
-0.10040283 0.93359375 -0.74072266 0.047912598 0.51660156 -0.022903442 0.74902344 -0.03933716
0.6640625 0.61865234 1.1894531 -0.5571289 0.06542969 0.95947266 0.0574646 -0.8823242
-0.17321777 -0.9399414 0.00030088425 0.34228516 -0.42895508 -0.13464355 0.040100098 -0.38549805
0.60791016 0.43603516 0.33544922 -0.121154785 0.0030097961 0.77197266 0.25732422 0.26953125
0.027053833 0.2548828 0.7060547 0.74853516 -0.34838867 0.5805664 0.38500977 0.25878906
0.048980713 0.35302734 -0.17016602 0.01953125 0.50927734 -0.25634766 0.1920166 0.8442383
00000000: 00c0 a7be 0040 7d3e 0060 50be 0000 aebc
00000010: 0080 6f3f 0000 2c3f 0020 be3f 00c0 7f3f
00000020: 0080 34bf 0000 3dbe 00c0 b63b 0080 143e
00000030: 0020 2f3c 00a0 66bf 00a0 223f 00a0 543f
00000040: 0040 663e 00e0 a23e 00c0 0bbf 00a0 cf3e
00000050: 0020 a33e 0000 22bd 0060 733d 0000 3a3f
00000060: 0020 64be 0080 a3bd 00e0 e63e 0020 323f
00000070: 00c0 be3e 0020 b1bc 0000 263f 0080 213d
00000080: 00e0 893f 0060 9b3e 00a0 793f 0040 1a3d
00000090: 00e0 a23e 0040 353f 0060 f8be 0060 f63e
000000a0: 00e0 e6bd 0080 cd3d 00a0 64be 0060 cfbe
000000b0: 0020 dfbd 0060 91be 00a0 a9be 0000 c13e
000000c0: 00a0 cdbd 0000 6f3f 00a0 3dbf 0040 443d
000000d0: 0040 043f 00a0 bbbc 00c0 3f3f 0020 21bd
000000e0: 0000 2a3f 0060 1e3f 0040 983f 00a0 0ebf
000000f0: 0000 863d 00a0 753f 0060 6b3d 00e0 61bf
00000100: 0060 31be 00a0 70bf 00c0 9d39 0040 af3e
00000110: 00a0 dbbe 00e0 09be 0040 243d 0060 c5be
00000120: 00a0 1b3f 0040 df3e 00c0 ab3e 0020 f8bd
00000130: 0040 453b 00a0 453f 00c0 833e 0000 8a3e
00000140: 00a0 dd3c 0080 823e 00c0 343f 00a0 3f3f
00000150: 0060 b2be 00a0 143f 0020 c53e 0080 843e
00000160: 00a0 483d 00c0 b43e 0040 2ebe 0000 a03c
00000170: 0060 023f 0040 83be 00a0 443e 0020 583f

conv2d_26_1/y:0 f4 [24]
-0.37646484 0.12207031 -0.35327148 0.123413086 0.26123047 -0.20727539 -0.22790527 -0.12512207
0.045074463 -0.24902344 -0.37573242 0.027832031 -0.27563477 -0.04171753 -0.33642578 -0.25634766
-0.13684082 -0.09490967 -0.2244873 -0.12359619 -0.15002441 -0.5551758 -0.25878906 -0.08898926
00000000: 00c0 c0be 0000 fa3d 00e0 b4be 00c0 fc3d
00000010: 00c0 853e 0040 54be 0060 69be 0020 00be
00000020: 00a0 383d 0000 7fbe 0060 c0be 0000 e43c
00000030: 0020 8dbe 00e0 2abd 0040 acbe 0040 83be
00000040: 0020 0cbe 0060 c2bd 00e0 65be 0020 fdbd
00000050: 00a0 19be 0020 0ebf 0080 84be 0040 b6bd

conv2d_25_1/y:0 f4 [96]
0.33203125 -0.51171875 -0.38061523 -1.1191406 -0.7285156 -1.4570312 -0.9243164 0.3232422
0.0015420914 0.86572266 -0.4519043 -0.54589844 -2.0214844 -1.3876953 -0.48266602 -1.1513672
-0.5800781 0.33032227 -0.5161133 -0.73339844 -0.53466797 -0.10888672 0.022781372 -1.1875
-0.49658203 -1.1621094 0.26538086 -0.30078125 -0.67285156 -0.61328125 0.18688965 0.14343262
-0.8911133 -0.6948242 -0.5917969 -1.6669922 -1.8466797 0.07458496 -0.4086914 -0.46411133
-1.8876953 -1.1582031 -0.052368164 -0.066223145 -0.9716797 -2.0175781 1.0078125 1.2529297
0.57470703 -0.6899414 0.19812012 -0.51171875 -0.22473145 -0.12634277 -1.0146484 -0.2993164
-0.055389404 0.56933594 -0.7207031 -1.0644531 -0.61035156 -0.74121094 -0.06750488 -0.36254883
-1.5380859 -1.1425781 -1.3173828 -0.82373047 -0.8222656 -0.04385376 0.76220703 1.2734375
-0.82714844 -0.12390137 -0.6801758 -0.2709961 -1.8359375 -0.44702148 -0.18725586 0.011779785
0.109069824 -1.0869141 0.30322266 -0.30810547 -0.18151855 -0.24584961 -0.8803711 -0.32958984
0.11010742 -1.0 -1.2519531 0.92089844 -1.4121094 -0.32641602 -1.2753906 1.3632812
00000000: 0000 aa3e 0000 03bf 00e0 c2be 0040 8fbf
00000010: 0080 3abf 0080 babf 00a0 6cbf 0080 a53e
00000020: 0020 ca3a 00a0 5d3f 0060 e7be 00c0 0bbf
00000030: 0060 01c0 00a0 b1bf 0020 f7be 0060 93bf
00000040: 0080 14bf 0020 a93e 0020 04bf 00c0 3bbf
00000050: 00e0 08bf 0000 dfbd 00a0 ba3c 0000 98bf
00000060: 0040 febe 00c0 94bf 00e0 873e 0000 9abe
00000070: 0040 2cbf 0000 1dbf 0060 3f3e 00e0 123e
00000080: 0020 64bf 00e0 31bf 0080 17bf 0060 d5bf
00000090: 0060 ecbf 00c0 983d 0040 d1be 00a0 edbe
000000a0: 00a0 f1bf 0040 94bf 0080 56bd 00a0 87bd
000000b0: 00c0 78bf 0020 01c0 0000 813f 0060 a03f
000000c0: 0020 133f 00a0 30bf 00e0 4a3e 0000 03bf
000000d0: 0020 66be 0060 01be 00e0 81bf 0040 99be
000000e0: 00e0 62bd 00c0 113f 0080 38bf 0040 88bf
000000f0: 0040 1cbf 00c0 3dbf 0040 8abd 00a0 b9be
00000100: 00e0 c4bf 0040 92bf 00a0 a8bf 00e0 52bf
00000110: 0080 52bf 00a0 33bd 0020 433f 0000 a33f
00000120: 00c0 53bf 00c0 fdbd 0020 2ebf 00c0 8abe
00000130: 0000 ebbf 00e0 e4be 00c0 3fbe 0000 413c
00000140: 0060 df3d 0020 8bbf 0040 9b3e 00c0 9dbe
00000150: 00e0 39be 00c0 7bbe 0060 61bf 00c0 a8be
00000160: 0080 e13d 0000 80bf 0040 a0bf 00c0 6b3f
00000170: 00c0 b4bf 0020 a7be 0040 a3bf 0080 ae3f

conv2d_24_1/y:0 f4 [32]
-0.52246094 -0.5410156 -0.19433594 0.37231445 0.24731445 0.42871094 0.07067871 0.3334961
0.19335938 0.08288574 -0.7910156 0.08068848 0.3322754 -1.1347656 -0.06573486 -0.28588867
-0.03845215 0.21826172 -0.14953613 -0.030914307 0.45117188 -0.029251099 0.26904297 0.09094238
0.21374512 0.22766113 0.00970459 -0.16149902 0.38500977 -0.058807373 -0.13574219 -0.34716797
00000000: 00c0 05bf 0080 0abf 0000 47be 00a0 be3e
00000010: 0040 7d3e 0080 db3e 00c0 903d 00c0 aa3e
00000020: 0000 463e 00c0 a93d 0080 4abf 0040 a53d
00000030: 0020 aa3e 0040 91bf 00a0 86bd 0060 92be
00000040: 0080 1dbd 0080 5f3e 0020 19be 0040 fdbc
00000050: 0000 e73e 00a0 efbc 00c0 893e 0040 ba3d
00000060: 00e0 5a3e 0020 693e 0000 1f3c 0060 25be
00000070: 0020 c53e 00e0 70bd 0000 0bbe 00c0 b1be

conv2d_23_1/y:0 f4 [96]
-0.24804688 0.67626953 0.23913574 -0.03137207 -0.23718262 0.94628906 -0.3010254 -0.6098633
0.40673828 -0.027862549 -0.98828125 0.18981934 0.63183594 -0.13928223 0.20690918 0.97265625
-0.3017578 0.12756348 0.5786133 0.24621582 -0.19995117 -0.4309082 0.41186523 0.5444336
0.87158203 -0.17919922 0.43603516 0.1665039 0.40283203 0.109802246 -0.72802734 -0.008796692
0.28735352 0.4013672 0.058654785 0.57958984 0.17785645 -0.27294922 0.28588867 0.26367188
1.2167969 0.8730469 0.70751953 0.1348877 0.3022461 1.4697266 0.27148438 -0.47192383
0.46679688 0.09906006 -0.15576172 0.45629883 0.7084961 -0.69873047 0.25952148 0.7504883
0.6455078 0.080322266 0.62646484 -0.2614746 0.25878906 1.4765625 0.20861816 1.0751953
0.32104492 -0.009544373 0.14611816 0.33935547 0.035888672 -0.45361328 0.15637207 0.13781738
0.27368164 0.03579712 1.1044922 -0.6582031 0.78564453 0.26171875 0.55566406 -0.2705078
0.79589844 -0.26538086 0.21508789 0.43286133 0.21264648 0.048828125 0.03488159 -0.02027893
0.35473633 0.9370117 0.27294922 0.85009766 -0.028961182 0.106933594 0.33496094 1.0136719
00000000: 0000 7ebe 0020 2d3f 00e0 743e 0080 00bd
00000010: 00e0 72be 0040 723f 0020 9abe 0020 1cbf
00000020: 0040 d03e 0040 e4bc 0000 7dbf 0060 423e
00000030: 00c0 213f 00a0 0ebe 00e0 533e 0000 793f
00000040: 0080 9abe 00a0 023e 0020 143f 0020 7c3e
00000050: 00c0 4cbe 00a0 dcbe 00e0 d23e 0060 0b3f
00000060: 0020 5f3f 0080 37be 0040 df3e 0080 2a3e
00000070: 0040 ce3e 00e0 e03d 0060 3abf 0020 10bc
00000080: 0020 933e 0080 cd3e 0040 703d 0060 143f
00000090: 0020 363e 00c0 8bbe 0060 923e 0000 873e
000000a0: 00c0 9b3f 0080 5f3f 0020 353f 0020 0a3e
000000b0: 00c0 9a3e 0020 bc3f 0000 8b3e 00a0 f1be
000000c0: 0000 ef3e 00e0 ca3d 0080 1fbe 00a0 e93e
000000d0: 0060 353f 00e0 32bf 00e0 843e 0020 403f
000000e0: 0040 253f 0080 a43d 0060 203f 00e0 85be
000000f0: 0080 843e 0000 bd3f 00a0 553e 00a0 893f
00000100: 0060 a43e 0060 1cbc 00a0 153e 00c0 ad3e
00000110: 0000 133d 0040 e8be 0020 203e 0020 0d3e
00000120: 0020 8c3e 00a0 123d 0060 8d3f 0080 28bf
00000130: 0020 493f 0000 863e 0040 0e3f 0080 8abe
00000140: 00c0 4b3f 00e0 87be 0040 5c3e 00a0 dd3e
00000150: 00c0 593e 0000 483d 00e0 0e3d 0020 a6bc
00000160: 00a0 b53e 00e0 6f3f 00c0 8b3e 00a0 593f
00000170: 0040 edbc 0000 db3d 0080 ab3e 00c0 813f

conv2d_22_1/y:0 f4 [24]
-0.28027344 -0.21435547 0.16662598 -0.47680664 -0.20739746 -0.23400879 -0.5385742 -0.024291992
0.21875 0.22045898 -0.22583008 0.11999512 -0.1586914 0.11804199 -0.16320801 -0.27172852
0.047698975 -0.10345459 0.050231934 -0.083862305 -0.24633789 0.13085938 0.018051147 -0.19970703
00000000: 0080 8fbe 0080 5bbe 00a0 2a3e 0020 f4be
00000010: 0060 54be 00a0 6fbe 00e0 09bf 0000 c7bc
00000020: 0000 603e 00c0 613e 0040 67be 00c0 f53d
00000030: 0080 22be 00c0 f13d 0020 27be 0020 8bbe
00000040: 0060 433d 00e0 d3bd 00c0 4d3d 00c0 abbd
00000050: 0040 7cbe 0000 063e 00e0 933c 0080 4cbe
